app/src/main/assets/after_data_aug_mnist.tflite (tflite, 115896 bytes, 6 tensors)

sequential_3/dense_3/BiasAdd/ReadVariableOp f4 [10]
00000000: 862b 793d da61 243e 74f5 5cbd b7f6 cebd
00000010: 28d0 63bc b14c 74bd c7e3 993c bb14 843b
00000020: 7d8c 7abd 96b0 af3d
0.060832523 0.16052952 -0.05394502 -0.10105651 -0.013904609 -0.05964345 0.01878537 0.0040307916
-0.061169136 0.08578603

sequential_3/conv2d_6/BiasAdd/ReadVariableOp f4 [32]
00000000: 7000 4ebb 65c4 c1bb 6981 633d 29df 32bb
00000010: b503 99bc 0e0a e8bc ab66 d83d 5d61 4abc
00000020: 2958 583c 865b d0bc 1fea ba3c 9eb7 08bb
00000030: 5c3c 443c 953c 58bb ad7d cbbb ccc2 6ebb
00000040: fe9f 373d 358d 94bb 2b28 7bbc 9c66 963d
00000050: 6da9 80bc 357b 95bc 189e 2fbb ec5d c73a
00000060: 5afc 28bc db78 7dbc e8c2 a33d b665 82bb
00000070: f660 a93c 34b5 39bd d510 17bc 3511 bbbb
-0.0031433366 -0.0059133046 0.055543337 -0.0027293658 -0.018678525 -0.028325107 0.10566457 -0.012352315
0.013204613 -0.025434267 0.022816716 -0.0020861397 0.011977281 -0.0032995094 -0.00621005 -0.0036432026
0.044830315 -0.0045334348 -0.015329401 0.0734379 -0.015705789 -0.018247226 -0.0026797112 0.0015210486
-0.010314072 -0.015470709 0.0799616 -0.00397941 0.020676117 -0.045338824 -0.009220322 -0.0057088383

sequential_3/conv2d_7/BiasAdd/ReadVariableOp f4 [64]
00000000: 17c7 3f3c 8c76 7fbc 8cc8 2dbd 60a2 103c
00000010: d73b 7fbd 8a27 15bd 7a56 23bd 8340 18bd
00000020: 9965 43bd 2e1e d3bc 760f 25bc 96c2 8f3c
00000030: c59f 50bd fbcb 783c 620f 20bc ea65 1d3d
00000040: b9d8 ffbb 5d1e 6cbd 6a31 e0bb 81a4 5e3d
00000050: 1866 173c 0554 773d f644 703c be05 48bd
00000060: 35c3 ccbc c7ae 7c3d 441f afbc a0c6 a8bc
00000070: af60 bb3a 937e 09bd adde 20bc 4668 b93c
00000080: 737e 95bd fb2a 59bc fddd a5bc 4b8d 3bbd
00000090: 5419 82bc b03a 1cbc adc5 abbc 64e6 5b3d
000000a0: 2bd3 343d 0bf4 aabc b915 e2bc 9efe ac3d
000000b0: 9d42 c13a 4f2b 263d baac a3bc 6365 c9bd
000000c0: 7dab d43c 2ea8 3f3d f552 803c 0e22 f8bb
000000d0: ac62 0d3c ee4e 8f3c 52aa 9abd aac7 9dbd
000000e0: e14f 6c3d 1557 263c e7d9 6a3c 0b48 333d
000000f0: de1e bcbc 8b07 98bc e203 af3c 5ed5 8a3b
0.011705182 -0.015592229 -0.042427585 0.008827776 -0.062312927 -0.03641466 -0.039877392 -0.0371709
-0.047704313 -0.025771227 -0.010074487 0.01754884 -0.050933618 0.0151853515 -0.009769293 0.03842727
-0.007807818 -0.057646144 -0.006841828 0.054356102 0.00924065 0.06038286 0.014664879 -0.0488336
-0.024995426 0.06169012 -0.021377213 -0.020602524 0.0014295782 -0.033567976 -0.009818715 0.02263273
-0.07299509 -0.013254876 -0.020247454 -0.045789044 -0.015881218 -0.009535477 -0.020968283 0.053686514
0.044146698 -0.020868322 -0.027598249 0.08447002 0.0014744584 0.040568646 -0.019979823 -0.09833791
0.025960678 0.046791248 0.015664557 -0.007572419 0.008629482 0.017493691 -0.07552017 -0.077040985
0.057693366 0.010152598 0.0143341785 0.043769877 -0.022963937 -0.018558284 0.021364156 0.004236861

sequential_3/conv2d_6/Conv2D f4 [32, 3, 3, 1]
00000000: fd1e 243e 9ad8 8fbe 157e bebd 8e82 483e
00000010: 5ed4 8fbd 8e63 683d 0723 ee3e 146d 223c
00000020: 9f18 02bd a25e 7dbc 9afc 02bd d7a3 4c3c
00000030: 444b e0be dbdb c33c 092d c23e 87bb 89be
00000040: b479 bc3b af12 fe3e 5eae 3dbf 7e17 80be
00000050: 845e a33d 6e3f 5dbe 951e 1b3e 2cdd 833e
00000060: f03d 7bbe 0058 e63d 07a0 cb3e 4ac2 a53e
00000070: 7ddd 113e bc1b bbbe bcc3 3c3e 5931 21be
00000080: 7753 bbbe 7515 213e 3756 2dbd 3573 333e
00000090: 7fa7 bdbd bae9 a8be 309b aebe 0612 443e
000000a0: db6d 77bd ae41 7e3c 7b43 513e 7b99 3c3e
000000b0: d1f9 a13e 809a 363d fe17 22be 9d31 88be
000000c0: ce4e 3d3d 8897 f23c 40b3 db3c e425 813e
000000d0: 3513 ae3d 7040 003d e2dc a33e 4a7c 0e3e
000000e0: 8c97 c0be 7718 8b3e 1dda 243d 595b 11bf
000000f0: e1cd 82be 150c 10bf 3edf b8be 4c88 46be
00000100: 2112 11be edf2 bbbd 7012 26be 566d de3d
00000110: 3d9e 7d3d 3df7 a63e 00c6 6d3e b608 b2bc
00000120: ccab 163e 3019 ad3e 038b cb3e 80b9 29bd
00000130: f46e 18be e943 8f3d b647 01bf a77c d1be
00000140: a53c e73d 477b 403e c4bb a9bd 38d6 873d
00000150: d22a dbbd 4052 35be 1239 7bbc 68dc 053e
00000160: 6dda 6bbd 69d1 033e 2754 873e 28ce 963e
00000170: 5dc0 653e 5845 213e f9bf a0bd b0c2 133e
00000180: c552 b3be e8ba aebe 178b 66be a48b d43e
00000190: e238 1cbe c6f3 e8be 8d6d af3e 6133 efbd
000001a0: 77fc d7bd adc2 24bc 2562 16bd eeb4 733d
000001b0: 1951 bc3e 8071 9b3e c7ac 3b3d 2111 a83e
000001c0: 4304 9dbd b021 b6be 7607 4c3e 5e00 87be
000001d0: 2dd1 0fbf 01ce fd3d 093d 6bbd 42a6 793e
000001e0: db04 6fbe 89fe 74be 747a 4dbe c4ef 3c3e
000001f0: 926e 2a3e 2714 453d a048 653c 2641 863e
00000200: ebfd 613e 216b f13b e40b 713e aea4 49be
00000210: 7c43 8b3e b821 583c 6575 28bf c946 0fbd
00000220: bac5 383d d0a4 60be ce04 a33d 1f36 3f3c
00000230: ed55 723e 0c4f edbe 0c4c 7fbd 744d e63e
00000240: b2b6 fcbb c300 d9be c1f9 32bf 07fd 373e
00000250: 7497 0abe 4fe7 76be e9bf dc3e 3a29 693e
00000260: 2eca ccbd 594e e63e a326 ab3d 029e 503d
00000270: 9c0f e63c f5d5 59be 3267 19be 9327 a2bc
00000280: f319 26bd 21c3 3e3d 6e17 4d3e 7834 95bd
00000290: 09a9 123e 67ed ee3c 7c1c e4bc aa6e ebbe
000002a0: d7e9 d03e 61a2 8e3e 4058 b2be c509 32bf
000002b0: 2942 a2be be41 25bf 659f 40be 7dc6 d9bc
000002c0: 6640 5ebc ac2c cc3d a1f1 963e 36a5 803e
000002d0: 2bf4 c23d 045c 76bd adfb 44bd a2d8 703d
000002e0: 3f39 84be a1b4 833d 9f3b 5f3e 7b03 e9bc
000002f0: 46a0 b23e 6582 493b 3c27 8cbe bf30 e33d
00000300: 7fba fcbd 9297 9dbe 5461 32bd 5aaa 183e
00000310: 72f8 583e 6b41 d33e 3c08 e53e 4343 6cbc
00000320: 4e02 7b3c 7a60 e6bc d621 b7be fdd9 9cbd
00000330: 3446 473b 5de4 f6bd f51d 913e 10b3 6b3e
00000340: 6743 3e3e 3789 813e 2258 a53d dbac 023e
00000350: 329c cbbd 6f6c ff3d cd54 90be d38c fcbe
00000360: 4d46 ecbe 3813 bebe 0267 87be 8df0 f63d
00000370: 3cd0 043e 7ba3 583e c3e1 2b3e 624b 043e
00000380: f6a6 953e 51af f53e 4c92 62bb 908d c73d
00000390: 66b0 3a3c b8f8 9dbe ba5d cbbd 5d3a 153e
000003a0: 29b1 bb3d 6477 153d b24c 99be b3ed debe
000003b0: ae96 f9be 327a 863e f214 a63e 2cd6 c1be
000003c0: b702 4d3e a7eb e33d 0a50 c4be cf23 823e
000003d0: c9bc 423e ddd3 bc3e c62f 983d 79f5 4b3d
000003e0: e37d 093e f9d1 883c f029 61be fc32 07bf
000003f0: 053f 743d 5737 85be e63c 3abf 624b d83e
0.16027446 -0.2809494 -0.09301392 0.19581053 -0.07022928 0.056735568 0.465111 0.009913702
-0.03176176 -0.015464457 -0.03197918 0.012490234 -0.43807423 0.023908546 0.37924984 -0.26900885
0.005751813 0.4962363 -0.7409419 -0.25017923 0.07977012 -0.21606228 0.15148385 0.25754678
-0.24535346 0.112472534 0.3977053 0.32374793 0.14244647 -0.36544597 0.18434042 -0.15741481
-0.36587116 0.15730841 -0.04231855 0.17524417 -0.09260463 -0.3299082 -0.34102774 0.191475
-0.0604075 0.015518589 0.20435898 0.18417923 0.31635907 0.044580936 -0.15829465 -0.26600352
0.046217732 0.029613271 0.026818871 0.2522422 0.08499757 0.031311452 0.32004458 0.139146
-0.3761562 0.27167103 0.04024707 -0.5678001 -0.25547698 -0.56268436 -0.3610782 -0.1938793
-0.14167072 -0.09177194 -0.16217971 0.10860698 0.061918486 0.32610503 0.23220062 -0.02173267
0.14713973 0.3380828 0.39754495 -0.041436672 -0.14886075 0.06995375 -0.5050005 -0.40915415
0.11290864 0.18797027 -0.082877666 0.06632656 -0.10701527 -0.17707157 -0.015333431 0.1307236
-0.057581354 0.12872852 0.2643139 0.2945416 0.22436662 0.15749109 -0.07849116 0.14429736
-0.35024086 -0.34126973 -0.22513996 0.41512787 -0.15256074 -0.45498484 0.34263268 -0.116797216
-0.10546201 -0.01005618 -0.03671469 0.05949872 0.36780623 0.3036003 0.04581907 0.32825568
-0.076668285 -0.35572577 0.19924721 -0.26367468 -0.5617855 0.12392808 -0.057431255 0.24379829
-0.23341696 -0.23925222 -0.20066243 0.18450838 0.16643742 0.048114922 0.013994366 0.2622158
0.22069518 0.007367507 0.23539692 -0.19691727 0.27199924 0.013191633 -0.6580413 -0.034979615
0.04511044 -0.21937871 0.07959901 0.011670618 0.2366559 -0.4634937 -0.062328383 0.44980967
-0.0077122087 -0.42383394 -0.69912344 0.17967616 -0.13534337 -0.24111675 0.43115166 0.22769633
-0.099995 0.4498165 0.08356979 0.050931938 0.028083615 -0.21273024 -0.14980772 -0.019794261
-0.04055209 0.04657281 0.20028469 -0.07285398 0.14322294 0.029165937 -0.027845614 -0.45982867
0.40803406 0.2785826 -0.34832954 -0.6954616 -0.316911 -0.6455344 -0.18810804 -0.026583904
-0.0135651585 0.09969458 0.29481223 0.25126046 0.095192276 -0.060146347 -0.04809158 0.058800347
-0.25824925 0.064309366 0.21800087 -0.028444042 0.34887904 0.0030747887 -0.27373683 0.11093282
-0.12340259 -0.307797 -0.04354985 0.14908734 0.21188524 0.41260847 0.44732845 -0.014420333
0.015320374 -0.028122175 -0.35768002 -0.076587655 0.0030406835 -0.120552756 0.28343168 0.23017526
0.185804 0.253 0.080734506 0.12761252 -0.09941901 0.12471854 -0.28189698 -0.4932619
-0.46147385 -0.37124038 -0.26445776 0.120576 0.1297006 0.21156113 0.1678534 0.12919381
0.29228944 0.47985318 -0.0034572063 0.09743798 0.011394596 -0.3085382 -0.09929986 0.14573045
0.0916465 0.036490813 -0.29941326 -0.43540725 -0.48747772 0.26265103 0.32437855 -0.37858713
0.20020567 0.111289315 -0.38342315 0.25417945 0.19017328 0.3688039 0.07430987 0.049794648
0.13426928 0.016701685 -0.21988654 -0.5281217 0.059630413 -0.26018783 -0.72749174 0.42245013

sequential_3/conv2d_7/Conv2D i1 [64, 3, 3, 32]
00000000: e7d4 0aae 19fc 0524 fbee c3b5 8109 c1b2
00000010: ffb1 e738 f917 9dcc 2bdb f78f e72f 9be3
00000020: 0edc f0df 04f5 ef18 1c12 f0f3 b508 cdf5
00000030: 01d6 0cfd f20b bee5 f4eb 21bb 1c08 a7c0
00000040: fdc7 efec f3f1 06f7 14f3 1a04 e524 faa4
00000050: 12e8 2af3 d8f9 a5fc f00e 250d 23f0 fd03
00000060: f7fd edd9 0013 062b e502 24b4 de21 dce2
00000070: 14f4 f019 1701 e513 08e9 ea0f e91d d4fa
00000080: fceb dee7 100e 10fc 031a 2104 eb0c c9ff
00000090: 02fd fe0e 14fb ded8 0216 fab6 0ff5 d5d9
000000a0: f3b9 c9ee faf7 1d02 02f5 f813 d5fc eea8
000000b0: 0ce8 24eb f7e0 c3dc da0a 288c 0ce6 a3fa
000000c0: fef1 e5dc 1605 defa 1005 45cf 010f 1700
000000d0: 1112 e1fe 0dec 0426 090b 0135 ea08 0ef2
000000e0: 00ff dd0a 1203 9ef6 3505 4b0a 8917 ba32
000000f0: fffe f317 0608 16aa 0b03 e803 0afd fe0a
-25 -44 10 -82 25 -4 5 36
-5 -18 -61 -75 -127 9 -63 -78
-1 -79 -25 56 -7 23 -99 -52
43 -37 -9 -113 -25 47 -101 -29
14 -36 -16 -33 4 -11 -17 24
28 18 -16 -13 -75 8 -51 -11
1 -42 12 -3 -14 11 -66 -27
-12 -21 33 -69 28 8 -89 -64
-3 -57 -17 -20 -13 -15 6 -9
20 -13 26 4 -27 36 -6 -92
18 -24 42 -13 -40 -7 -91 -4
-16 14 37 13 35 -16 -3 3
-9 -3 -19 -39 0 19 6 43
-27 2 36 -76 -34 33 -36 -30
20 -12 -16 25 23 1 -27 19
8 -23 -22 15 -23 29 -44 -6
-4 -21 -34 -25 16 14 16 -4
3 26 33 4 -21 12 -55 -1
2 -3 -2 14 20 -5 -34 -40
2 22 -6 -74 15 -11 -43 -39
-13 -71 -55 -18 -6 -9 29 2
2 -11 -8 19 -43 -4 -18 -88
12 -24 36 -21 -9 -32 -61 -36
-38 10 40 -116 12 -26 -93 -6
-2 -15 -27 -36 22 5 -34 -6
16 5 69 -49 1 15 23 0
17 18 -31 -2 13 -20 4 38
9 11 1 53 -22 8 14 -14
0 -1 -35 10 18 3 -98 -10
53 5 75 10 -119 23 -70 50
-1 -2 -13 23 6 8 22 -86
11 3 -24 3 10 -3 -2 10

sequential_3/dense_3/MatMul i1 [10, 9216] scale=0.0073216506 zero_point=0
00000000: 07ff 00fc 0fff cc14 fc05 05ff 090e fcee
00000010: f5e7 030c 0402 fce1 f60a f7e3 f80d fef1
00000020: 0f06 fdf9 f90f fc0b e90f 09de da0c fffb
00000030: e0ea d106 f5fe 03ed fae3 f6f8 01ff e8be
00000040: 06ff 00fa 09fe e208 fbf8 04fc 07f6 00ee
00000050: e5f8 08fc fc0b 03d2 fd09 ffdf f60d fcf3
00000060: 021d f9f6 f406 000b f808 00f1 df02 ff10
00000070: eed2 d206 f60d 09ed 04da f4f3 02fb ecd1
00000080: f6fc f4f4 fa02 f805 fef5 00f7 f8f8 00e4
00000090: eff2 0008 fc02 f6e1 f9fb f5d1 f104 feea
000000a0: 051b f8fb fb05 0707 ff08 f300 e0f7 fd13
000000b0: e5d3 ce12 e9fa 0afc f1e3 fee4 02fb e9e4
000000c0: f8fc f100 feff 0202 03ee feec fffd fddc
000000d0: faf3 f102 eb02 08e5 fb09 00db e403 fef9
000000e0: 0b17 f0f5 fd09 0103 ff0c f40d e9ed ff11
000000f0: eac4 d616 f2ff 16ee fcd3 00db 02ff 05f2
0.051251553 -0.0073216506 0.0 -0.029286603 0.10982476 -0.0073216506 -0.38072583 0.14643301
-0.029286603 0.036608253 0.036608253 -0.0073216506 0.06589486 0.102503106 -0.029286603 -0.13178971
-0.08053815 -0.18304126 0.021964952 0.08785981 0.029286603 0.014643301 -0.029286603 -0.22697116
-0.073216505 0.073216505 -0.06589486 -0.21232787 -0.058573205 0.09518146 -0.014643301 -0.10982476
0.10982476 0.043929905 -0.021964952 -0.051251553 -0.051251553 0.10982476 -0.029286603 0.08053815
-0.16839796 0.10982476 0.06589486 -0.24893612 -0.2782227 0.08785981 -0.0073216506 -0.036608253
-0.23429282 -0.1610763 -0.34411758 0.043929905 -0.08053815 -0.014643301 0.021964952 -0.13911135
-0.043929905 -0.21232787 -0.073216505 -0.058573205 0.0073216506 -0.0073216506 -0.17571962 -0.48322895
0.043929905 -0.0073216506 0.0 -0.043929905 0.06589486 -0.014643301 -0.21964952 0.058573205
-0.036608253 -0.058573205 0.029286603 -0.029286603 0.051251553 -0.073216505 0.0 -0.13178971
-0.19768457 -0.058573205 0.058573205 -0.029286603 -0.029286603 0.08053815 0.021964952 -0.33679593
-0.021964952 0.06589486 -0.0073216506 -0.24161448 -0.073216505 0.09518146 -0.029286603 -0.09518146
0.014643301 0.21232787 -0.051251553 -0.073216505 -0.08785981 0.043929905 0.0 0.08053815
-0.058573205 0.058573205 0.0 -0.10982476 -0.24161448 0.014643301 -0.0073216506 0.11714641
-0.13178971 -0.33679593 -0.33679593 0.043929905 -0.073216505 0.09518146 0.06589486 -0.13911135
0.029286603 -0.2782227 -0.08785981 -0.09518146 0.014643301 -0.036608253 -0.14643301 -0.34411758
-0.073216505 -0.029286603 -0.08785981 -0.08785981 -0.043929905 0.014643301 -0.058573205 0.036608253
-0.014643301 -0.08053815 0.0 -0.06589486 -0.058573205 -0.058573205 0.0 -0.20500621
-0.12446806 -0.102503106 0.0 0.058573205 -0.029286603 0.014643301 -0.073216505 -0.22697116
-0.051251553 -0.036608253 -0.08053815 -0.34411758 -0.10982476 0.029286603 -0.014643301 -0.1610763
0.036608253 0.19768457 -0.058573205 -0.036608253 -0.036608253 0.036608253 0.051251553 0.051251553
-0.0073216506 0.058573205 -0.09518146 0.0 -0.23429282 -0.06589486 -0.021964952 0.13911135
-0.19768457 -0.32947427 -0.36608252 0.13178971 -0.16839796 -0.043929905 0.073216505 -0.029286603
-0.10982476 -0.21232787 -0.014643301 -0.20500621 0.014643301 -0.036608253 -0.16839796 -0.20500621
-0.058573205 -0.029286603 -0.10982476 0.0 -0.014643301 -0.0073216506 0.014643301 0.014643301
0.021964952 -0.13178971 -0.014643301 -0.14643301 -0.0073216506 -0.021964952 -0.021964952 -0.26357943
-0.043929905 -0.09518146 -0.10982476 0.014643301 -0.15375467 0.014643301 0.058573205 -0.19768457
-0.036608253 0.06589486 0.0 -0.27090108 -0.20500621 0.021964952 -0.014643301 -0.051251553
0.08053815 0.16839796 -0.11714641 -0.08053815 -0.021964952 0.06589486 0.0073216506 0.021964952
-0.0073216506 0.08785981 -0.08785981 0.09518146 -0.16839796 -0.13911135 -0.0073216506 0.12446806
-0.1610763 -0.43929905 -0.30750933 0.1610763 -0.102503106 -0.0073216506 0.1610763 -0.13178971
-0.029286603 -0.32947427 0.0 -0.27090108 0.014643301 -0.0073216506 0.036608253 -0.102503106
