app/src/main/assets/before_data_aug_mnist.tflite (tflite, 39944 bytes, 6 tensors)

sequential_5/dense_6/BiasAdd/ReadVariableOp f4 [10]
0.054399297 0.108230926 0.0060362867 -0.054053623 -0.044609353 -0.039454125 -0.007843725 -0.005186649
0.035537753 -0.03390151
00000000: ccd1 5e3d 2da8 dd3d 0bcc c53b 5567 5dbd
00000010: 4cb8 36bd a69a 21bd f882 00bc c4f4 a9bb
00000020: 0990 113d 4fdc 0abd

sequential_5/conv2d_12/BiasAdd/ReadVariableOp f4 [32]
-0.19958176 -0.11822146 -0.03277842 -0.15621081 -0.112731986 -0.14601453 -0.060139876 0.044154607
0.055804018 -0.0073979497 -0.011028144 -0.009463323 -0.10066906 -0.06957532 -0.0061658346 -0.075637445
-0.026602333 -0.07701314 0.022518305 -0.01367891 -0.1323452 -0.0077387467 -0.12954971 -0.014252655
-0.018785726 -0.009553794 0.0023599195 -0.09463862 -0.0029964945 -0.13694459 0.051102754 -0.18989906
00000000: 295f 4cbe 181e f2bd aa42 06bd baf5 1fbe
00000010: 07e0 e6bd d584 15be 3b55 76bd 76db 343d
00000020: c192 643d 806a f2bb 63af 34bc 0e0c 1bbc
00000030: 952b cebd 817d 8ebd c50a cabb cee7 9abd
00000040: 23ed d9bc 11b9 9dbd 4f78 b83c 821d 60bc
00000050: 8085 07be 5095 fdbb aea8 04be f883 69bc
00000060: 86e4 99bc 8487 1cbc e1a8 1a3b e5d1 c1bd
00000070: d660 44bb 343b 0cbe 1f51 513d e674 42be

sequential_5/conv2d_13/BiasAdd/ReadVariableOp f4 [64]
-0.008680503 0.021824956 -0.11944445 0.031036915 -0.19661748 -0.004457671 -0.04937564 -0.010504404
-0.10895535 0.016508585 0.012644778 -0.12269209 0.007898614 -0.0026175864 -0.037898265 0.035022162
0.022919975 -0.07899505 -0.0463049 0.008095557 -0.014575307 0.04021083 -0.016553516 -0.055600494
-0.09418911 -0.10559395 -0.03234798 -0.14848042 -0.08534323 -0.08265192 0.037708513 -0.04098351
-0.033461772 -0.0240153 -0.031283773 -0.061369076 -0.084132455 -0.085912 -0.08307239 0.051742036
-0.20862485 0.0014460875 -0.06087855 -0.055218376 0.03700082 -0.04751848 -0.17953768 -0.07084505
-0.06743034 -0.03393147 -0.09651522 -0.08000242 -0.04065545 -0.121432036 -0.056971356 -0.0015508446
-0.088306904 -0.14003122 0.0029887203 -0.097849526 -0.09157628 -0.10248225 -0.1575568 -0.038838726
00000000: ab38 0ebc 40ca b23c 4b9f f4bd 2141 fe3c
00000010: 1856 49be a811 92bb 1c3e 4abd aa1a 2cbc
00000020: fc23 dfbd 033d 873c 0b2c 4f3c fe45 fbbd
00000030: 3069 013c d08b 2bbb 363b 1bbd 6673 0f3d
00000040: acc2 bb3c 28c8 a1bd 35aa 3dbd 3aa3 043c
00000050: 45cd 6ebc 1cb4 243d 3d9b 87bc 58bd 63bd
00000060: 38e6 c0bd a441 d8bd 517f 04bd 400b 18be
00000070: 6ec8 aebd 6945 a9bd 3e74 1a3d 53de 27bd
00000080: 360f 09bd bcbb c4bc 6a23 00bd 245e 7bbd
00000090: a34d acbd a1f2 afbd db21 aabd 75ef 533d
000000a0: c1a1 55be a58a bd3a c95b 79bd aa2c 62bd
000000b0: 2c8e 173d bda2 42bd bad8 37be 3617 91bd
000000c0: eb18 8abd bafb 0abd c6a9 c5bd 4fd8 a3bd
000000d0: 5486 26bd 5cb1 f8bd cc5a 69bd b645 cbba
000000e0: 40da b4bd 5864 0fbe 68de 433b 5565 c8bd
000000f0: 588c bbbd 37e2 d1bd 9256 21be 5b15 1fbd

sequential_5/conv2d_12/Conv2D f4 [32, 3, 3, 1]
0.12194793 0.13234858 0.016206235 0.057667848 0.024459809 0.06633303 -0.037217744 0.08798189
0.16520326 -0.02296437 -0.12250781 0.116359405 0.13980357 0.16250998 0.12214631 0.16393764
-0.014666489 -0.28128776 0.06313592 0.19849633 0.15042558 -0.110762924 0.20668985 0.2634322
-0.47166374 -0.41852129 -0.16961756 0.033609107 0.1279018 0.0427908 0.11157548 -0.11913963
0.00022515675 0.116830036 0.049421646 0.046101205 -0.19049767 -0.10694376 0.09757403 -0.31333598
0.011662313 0.11299873 0.09750763 0.29133105 0.031042643 -0.0050445586 0.1860397 0.06544342
-0.1969408 0.106558844 0.15776274 -0.2938716 -0.071023986 0.15767953 -0.06554328 0.11964274
0.16022909 0.17438197 0.26977575 -0.11053245 0.07677883 -0.045497864 -0.4755781 0.37835944
-0.008103535 -0.2900682 0.37910077 -0.103783324 -0.3341868 0.21004574 -0.30530408 -0.56508183
-0.5436138 -0.60464954 -0.3031794 -0.5328115 0.077121355 0.292727 -0.007672466 0.48015904
0.25794956 0.38408393 0.35899538 -0.11450595 0.19511072 -0.12109731 -0.48646784 -0.11750608
-0.37708485 0.03942726 -0.27972093 -0.29460597 -0.26068005 -0.03689617 0.06129855 -0.057110287
0.34070307 0.08742969 0.24508344 0.1283029 -0.18280812 -0.23825453 0.23010388 0.071180485
-0.42041233 0.2379544 0.23788874 -0.07021723 -0.09387766 0.20399119 -0.2838225 0.04451957
0.057007834 0.17439856 -0.13099784 0.018564615 0.033605527 -0.11117606 -0.30750704 -0.13188404
0.21751839 -0.01441117 0.18162066 0.0018111749 0.19291869 -0.015919993 -0.30390027 -0.26063228
-0.208794 -0.06753622 0.0035018222 0.018638907 0.36259592 0.24368124 0.1600944 0.009726606
0.00832183 -0.45361403 0.17611341 0.22287895 -0.3918482 0.08532857 0.360426 0.045342304
-0.3361826 0.06235095 -0.030216971 -0.42060137 -0.09990948 0.23905334 0.02819932 0.17909926
0.22407328 -0.19859494 0.0010697406 0.11376019 -0.06188071 0.29414526 -0.13565089 0.20173404
0.21655937 -0.34888887 -0.48171645 -0.2848425 -0.24530868 0.019565493 -0.19763699 -0.09615167
0.29963452 0.23666014 0.07830871 0.111265615 0.09856203 0.2658653 -0.01805588 0.19749986
-0.0130932545 -0.09391997 -0.2698164 -0.42359075 -0.12448001 0.06827007 -0.12517875 0.03761151
0.16024663 0.10258113 -0.1356812 -0.09759166 0.13998193 0.168941 0.24723254 0.25213733
0.12529078 0.11116507 0.12187777 -0.3127801 -0.42555964 -0.36629 0.01621937 0.044492304
0.1283252 0.15090366 0.08099419 0.016393881 0.048926394 -0.08847043 -0.22914506 0.03491114
0.27069438 0.2547134 -0.18649572 0.052729134 0.30217594 -0.3397251 -0.4839329 -0.19257298
-0.31182417 -0.046064675 0.028995147 -0.057735376 0.20373307 0.24176027 0.031663008 0.01960766
-0.18033895 -0.3004519 -0.014474023 -0.13363443 -0.03424112 0.15243737 -0.006425236 -0.22322692
0.113882184 0.15008017 -0.52500695 -0.14518885 0.25112426 -0.6083833 0.12959051 0.30985087
-0.16003329 -0.0029153153 0.28021264 0.2101705 0.0075072255 -0.28353408 -0.06437971 -0.21571806
-0.2779465 0.17599641 0.21902828 0.31678936 0.22858782 0.07911115 -0.10360374 0.21514621
00000000: d6bf f93d 6386 073e f0c2 843c 1f35 6c3d
00000010: f05f c83c 9dd9 873d a271 18bd d92f b43d
00000020: 0b2b 293e c61f bcbc 60e5 fabd d74d ee3d
00000030: ab28 0f3e 0469 263e d827 fa3d 45df 273e
00000040: b74b 70bc f304 90be 684d 813d 9f42 4b3e
00000050: 2a09 1a3e acd7 e2bd 81a6 533e 96e0 863e
00000060: e97d f1be 6c48 d6be 3ab0 2dbe b4a9 093d
00000070: b1f8 023e 6845 2f3d af81 e43d 7aff f3bd
00000080: 0e18 6c39 9644 ef3d 5a6e 4a3d 9ed4 3c3d
00000090: d211 43be 5405 dbbd e5d4 c73d 936d a0be
000000a0: 4913 3f3c e16b e73d 15b2 c73d 5829 953e
000000b0: 244d fe3c d34c a5bb 3181 3e3e 3307 863d
000000c0: d9aa 49be 863b da3d 8e8c 213e 5776 96be
000000d0: 0675 91bd be76 213e 8e3b 86bd 4107 f53d
000000e0: 1813 243e 3091 323e 0c20 8a3e d65e e2bd
000000f0: 383e 9d3d f85b 3abd f97e f3be 54b8 c13e
00000100: b0c4 04bc d283 94be 7f19 c23e 5a8c d4bd
00000110: 881a abbe 3b16 573e d150 9cbe 34a9 10bf
00000120: 462a 0bbf 50ca 1abf 553a 9bbe 5666 08bf
00000130: cdf1 9d3d 50e0 953e 4f69 fbbb 68d7 f53e
00000140: f711 843e a6a6 c43e 3ece b73e 1882 eabd
00000150: 1bcb 473e de01 f8bd 5012 f9be 07a7 f0bd
00000160: 4411 c1be 7b7e 213d 9537 8fbe 98d6 96be
00000170: db77 85be 7020 17bd 3014 7b3d 7aec 69bd
00000180: a270 ae3e 560e b33d 27f7 7a3e d661 033e
00000190: 0d32 3bbe fff8 73be 5aa0 6b3e 13c7 913d
000001a0: 4940 d7be 51aa 733e 1b99 733e 0dce 8fbd
000001b0: ee42 c0bd 11e3 503e 2f51 91be 275a 363d
000001c0: 0c81 693d 8995 323e 4c24 06be d214 983c
000001d0: f3a5 093d 46b0 e3bd 9071 9dbe 9c0c 07be
000001e0: 24bd 5e3e d41c 6cbc c4fa 393e f264 ed3a
000001f0: 7a8c 453e a56a 82bc d198 9bbe 9871 85be
00000200: 18ce 55be 6e50 8abd d47e 653b 9fb0 983c
00000210: 2ca6 b93e 9387 793e c9ef 233e 585c 1f3c
00000220: 4958 083c 1940 e8be 1357 343e 613a 643e
00000230: 54a0 c8be bfc0 ae3d c289 b83e dab8 393d
00000240: 2020 acbe b663 7f3d 9589 f7bc 1059 d7be
00000250: 579d ccbd 66ca 743e 4302 e73c cc65 373e
00000260: 7773 653e 795c 4bbe 8a36 8c3a 1afb e83d
00000270: a176 7dbd 359a 963e 11e8 0abe 5e93 4e3e
00000280: bdc1 5d3e 90a1 b2be 8aa3 f6be e0d6 91be
00000290: 3332 7bbe d047 a03c 5a61 4abe 2beb c4bd
000002a0: b269 993e 0957 723e 5160 a03d 3adf e33d
000002b0: e4da c93d 7f1f 883e ede9 93bc 673d 4a3e
000002c0: 1785 56bc 1d59 c0bd 6025 8abe e3e0 d8be
000002d0: 60ef febd 2ed1 8b3d dc2e 00be 870e 1a3d
000002e0: b117 243e 0e16 d23d 03f0 0abe 23de c7bd
000002f0: 6c57 0f3e dffe 2c3e 872a 7d3e 2518 813e
00000300: 3a4c 003e 83aa e33d 0d9b f93d b724 a0be
00000310: f4e2 d9be 5d8a bbbe 7cde 843c 903d 363d
00000320: ae67 033e 7d86 1a3e 48e0 a53d 764c 863c
00000330: 0b67 483d fc2f b5bd 01a5 6abe fcfe 0e3d
00000340: 7498 8a3e cb69 823e bcf8 3ebe 81fa 573d
00000350: ceb6 9a3e 73f0 adbe 0ec6 f7be da31 45be
00000360: 6ba7 9fbe 50ae 3cbd 3b87 ed3c ee7b 6cbd
00000370: 679f 503e 0190 773e 12b1 013d 3ea0 a03c
00000380: c6aa 38be d5d4 99be 7424 6dbc 77d7 08be
00000390: 6b40 0cbd 8b18 1c3e c98a d2bb 9995 64be
000003a0: 103b e93d 9eae 193e db66 06bf 63ac 14be
000003b0: 5c93 803e 02bf 1bbf 60b3 043e c6a4 9e3e
000003c0: c4df 23be e00e 3fbb 0878 8f3e f036 573e
000003d0: 2cff f53b 612b 91be 82d9 83bd 32e5 5cbe
000003e0: 014f 8ebe 6738 343e f348 603e 3732 a23e
000003f0: ed12 6a3e 0705 a23d 332e d4bd 4a4f 5c3e

sequential_5/conv2d_13/Conv2D i1 [64, 3, 3, 32]
-5 -6 20 19 -84 6 -5 -5
-127 1 -80 20 -6 -41 -103 -7
-64 -33 -25 5 3 10 -9 21
-19 -63 -82 4 25 -24 17 24
-5 -15 19 26 -72 -6 15 -3
-94 5 -42 -3 -39 -37 -71 -14
-51 1 -22 8 -32 -1 -2 -4
-37 -56 -22 -15 14 -51 2 -19
11 -24 12 17 58 17 -17 -41
-19 -23 -21 -21 21 -17 -27 -9
59 -37 -15 -13 -6 -13 -10 8
3 23 65 5 4 -22 -2 15
-35 -21 10 -7 -19 -5 -24 -22
-11 -39 34 43 -39 -28 12 11
-7 -22 48 -31 -19 -10 -19 51
-56 -23 -38 17 18 -6 57 4
-46 -56 -6 -32 -33 7 -52 5
-63 -18 -10 3 -53 -13 -9 -18
-41 -27 -22 -35 -42 -32 -50 16
-42 -58 -10 -24 21 -33 -1 -59
15 -9 29 23 45 55 -20 -83
34 -50 -2 -26 10 35 13 15
35 16 -9 -17 37 -40 -12 46
65 54 59 -26 -39 21 -67 41
19 66 -37 40 -16 1 46 82
-2 32 43 67 19 20 8 31
18 54 20 29 6 -29 45 -24
13 -9 5 16 71 25 4 -9
-52 -33 -47 -42 -51 -15 -32 30
-54 11 -56 18 -33 1 -58 12
-60 -30 -37 -46 -38 -63 -37 -35
-67 -59 3 -56 39 -51 -33 -22
00000000: fbfa 1413 ac06 fbfb 8101 b014 fad7 99f9
00000010: c0df e705 030a f715 edc1 ae04 19e8 1118
00000020: fbf1 131a b8fa 0ffd a205 d6fd d9db b9f2
00000030: cd01 ea08 e0ff fefc dbc8 eaf1 0ecd 02ed
00000040: 0be8 0c11 3a11 efd7 ede9 ebeb 15ef e5f7
00000050: 3bdb f1f3 faf3 f608 0317 4105 04ea fe0f
00000060: ddeb 0af9 edfb e8ea f5d9 222b d9e4 0c0b
00000070: f9ea 30e1 edf6 ed33 c8e9 da11 12fa 3904
00000080: d2c8 fae0 df07 cc05 c1ee f603 cbf3 f7ee
00000090: d7e5 eadd d6e0 ce10 d6c6 f6e8 15df ffc5
000000a0: 0ff7 1d17 2d37 ecad 22ce fee6 0a23 0d0f
000000b0: 2310 f7ef 25d8 f42e 4136 3be6 d915 bd29
000000c0: 1342 db28 f001 2e52 fe20 2b43 1314 081f
000000d0: 1236 141d 06e3 2de8 0df7 0510 4719 04f7
000000e0: ccdf d1d6 cdf1 e01e ca0b c812 df01 c60c
000000f0: c4e2 dbd2 dac1 dbdd bdc5 03c8 27cd dfea

sequential_5/dense_6/MatMul i1 [10, 1600] scale=0.0044112336 zero_point=0
0.008822467 -0.13674824 -0.11469208 -0.105869606 -0.14115947 -0.008822467 -0.044112336 -0.008822467
-0.22056168 -0.19409427 0.022056168 -0.07940221 0.022056168 -0.12351454 -0.11028084 -0.0661685
-0.03528987 -0.10145837 0.07057974 -0.14115947 -0.22056168 -0.08381344 0.017644934 0.03528987
-0.030878635 -0.008822467 0.08822467 -0.12351454 -0.044112336 -0.17203811 0.12792577 -0.0661685
0.0 0.017644934 -0.06175727 -0.026467402 0.048523568 -0.044112336 -0.097047135 -0.105869606
0.044112336 -0.052934803 -0.07499097 -0.039701104 -0.05734604 0.030878635 -0.18968305 0.048523568
-0.07057974 -0.017644934 -0.039701104 0.008822467 -0.07057974 -0.07940221 -0.030878635 -0.24702908
-0.06175727 -0.0661685 -0.022056168 -0.06175727 -0.11028084 -0.16762687 -0.017644934 0.097047135
-0.07499097 -0.21173921 -0.05734604 -0.105869606 -0.16321564 -0.008822467 -0.048523568 -0.12792577
-0.22497292 -0.08381344 -0.14115947 -0.07057974 0.07499097 -0.21615045 -0.017644934 0.06175727
-0.052934803 -0.22056168 -0.07499097 -0.28231895 -0.3043751 -0.132337 -0.09263591 -0.017644934
-0.23379537 -0.0661685 -0.09263591 -0.013233701 -0.22497292 -0.15439318 -0.09263591 0.017644934
-0.048523568 -0.052934803 -0.09263591 -0.07057974 0.008822467 -0.11469208 -0.15880442 -0.16762687
-0.06175727 0.03528987 -0.119103305 -0.11028084 0.039701104 -0.0661685 -0.12351454 -0.07499097
-0.06175727 -0.030878635 -0.030878635 0.026467402 0.052934803 -0.13674824 0.0 -0.22497292
-0.2602628 0.017644934 -0.132337 -0.20732798 -0.14998195 -0.19409427 -0.105869606 -0.09263591
-0.15439318 -0.19409427 -0.05734604 -0.1985055 -0.06175727 -0.119103305 -0.13674824 -0.0661685
-0.026467402 -0.017644934 -0.19409427 -0.039701104 -0.0044112336 -0.132337 0.008822467 0.017644934
-0.030878635 0.0044112336 -0.013233701 -0.21173921 -0.21615045 0.10145837 -0.07057974 -0.14557071
-0.017644934 -0.105869606 0.0044112336 0.008822467 -0.105869606 -0.017644934 -0.17644934 0.0044112336
0.013233701 -0.044112336 0.08822467 0.10145837 0.022056168 -0.05734604 0.030878635 -0.3528987
-0.05734604 0.013233701 -0.132337 -0.06175727 -0.07057974 0.07057974 -0.048523568 -0.0661685
0.017644934 0.0 0.0 0.044112336 0.052934803 0.07057974 -0.05734604 -0.07940221
-0.20732798 -0.022056168 -0.14998195 0.0044112336 0.11469208 -0.039701104 0.030878635 -0.07057974
-0.097047135 -0.132337 0.022056168 -0.12351454 -0.013233701 -0.017644934 -0.14115947 -0.039701104
0.044112336 -0.105869606 -0.07940221 -0.008822467 -0.017644934 0.0044112336 0.07057974 0.044112336
0.030878635 0.07057974 -0.008822467 -0.21615045 -0.18527181 0.044112336 0.013233701 -0.03528987
0.022056168 0.07940221 0.052934803 0.026467402 -0.008822467 0.0044112336 -0.14115947 -0.0044112336
0.0044112336 -0.09263591 -0.07940221 0.022056168 -0.052934803 -0.08381344 -0.27790773 -0.16321564
-0.017644934 -0.013233701 0.07057974 -0.14557071 -0.105869606 -0.11028084 -0.12351454 0.048523568
0.08822467 0.10145837 -0.0661685 0.08381344 0.03528987 0.10145837 -0.18086058 -0.10145837
-0.0044112336 -0.013233701 0.097047135 -0.14115947 -0.0661685 -0.07499097 0.08381344 -0.07499097
00000000: 02e1 e6e8 e0fe f6fe ced4 05ee 05e4 e7f1
00000010: f8e9 10e0 ceed 0408 f9fe 14e4 f6d9 1df1
00000020: 0004 f2fa 0bf6 eae8 0af4 eff7 f307 d50b
00000030: f0fc f702 f0ee f9c8 f2f1 fbf2 e7da fc16
00000040: efd0 f3e8 dbfe f5e3 cded e0f0 11cf fc0e
00000050: f4ce efc0 bbe2 ebfc cbf1 ebfd cddd eb04
00000060: f5f4 ebf0 02e6 dcda f208 e5e7 09f1 e4ef
00000070: f2f9 f906 0ce1 00cd c504 e2d1 ded4 e8eb
00000080: ddd4 f3d3 f2e5 e1f1 fafc d4f7 ffe2 0204
00000090: f901 fdd0 cf17 f0df fce8 0102 e8fc d801
000000a0: 03f6 1417 05f3 07b0 f303 e2f2 f010 f5f1
000000b0: 0400 000a 0c10 f3ee d1fb de01 1af7 07f0
000000c0: eae2 05e4 fdfc e0f7 0ae8 eefe fc01 100a
000000d0: 0710 fecf d60a 03f8 0512 0c06 fe01 e0ff
000000e0: 01eb ee05 f4ed c1db fcfd 10df e8e7 e40b
000000f0: 1417 f113 0817 d7e9 fffd 16e0 f1ef 13ef
